tools/fgd_chkpt/train_h36m_gesture_autoencoder_gesture_autoencoder_checkpoint_best.bin (torch_old, 782695 bytes, 62 tensors)

pose_encoder.net.0.0.weight f4 [32, 27, 3]
00000000: 63e0 23be 767d b3bc c010 fabd 1bf7 8abd
00000010: 0c98 52bd 4bc0 6bbd 5967 873e 3fc7 b83e
00000020: e004 5a3e 61b2 093e 91e7 ff3d 28f5 e93d
00000030: d7c0 143e 0440 f93d 8f7c ec3d 72b7 82be
00000040: c5a7 71be 2463 83be 8c37 03bd eb80 43bc
00000050: 19db 413d a6b3 403c a797 edbd cf05 92bd
00000060: 60bd 8a3f bc3a 6f3f db3f 823f 7af8 8abe
00000070: 6111 90be e371 aebe c011 a7be 9f1c 66be
00000080: b081 c7be 2cef 333d b53b bbbd 0311 ffbd
00000090: b72a cdbd 286a ae3d 9f58 c8bd c6b6 3bbe
000000a0: d8fe 22be 6464 57be b26a 4c3e 18ca cf3c
000000b0: 74b5 963d 2598 f4bd a561 8c3d 3992 ba3d
000000c0: c84e 8fbd e94b 81bd bed9 56bc aefe f33d
000000d0: 6ea0 ee3b 4700 d2bc 6a7e aebd eb85 8fbe
000000e0: a949 15be ce9c 97be d7bd 8bbe 122f 86be
000000f0: 20fe 3ebe 10a1 dfbc 8bb0 a13b 075e c43d
00000100: d940 0b3c 80f0 a7bc dcc8 6b3d 2d0c ed3d
00000110: 4d0d 443e aa4b 963d 4943 c7bd b436 83bd
00000120: 64cf 07be 27f5 35bd 7001 20bc 4ad0 c93b
00000130: 4021 e0bc e0d6 c0bd 64db 5b3d c940 5a3c
00000140: 62cd cd3c 54d0 a6be 1fa3 26be 481c 65be
00000150: 8af5 573e a022 053e 4e7d c63d f52f 99be
00000160: b8ed 53be f842 aebe ec65 0f3c 3f90 61bc
00000170: 7853 a83d 249d 873e 0f3c 023e e7a7 b23d
00000180: 7681 8f3e 0395 7c3e ceea 7a3d d265 58bd
00000190: 0cdd 853c 8771 28be 0836 6e3e 4f42 473e
000001a0: 5e06 033e 2b66 6dbe 4a53 88be 8e13 b3be
000001b0: 2846 8a3d 9647 bbbc 63c6 6abe b3e4 873e
000001c0: 055d 323e eb69 ba3e 5dc0 27be eac1 8abe
000001d0: 836c 36be ccc8 e7be 154a b7be c1b5 d7be
000001e0: 51fa 55be 7266 32be f5db 89be 96aa bcbe
000001f0: ab88 ddbe b8f9 ebbe 4841 3d3e 525f 743e
00000200: 1f7a 833e abf3 e33d f72c 303e 3da3 a13e
00000210: 9224 58bd 9127 83bd 072d 803d 6028 fe3e
00000220: 6141 ae3e c794 9b3e b5d7 95be 0772 3cbe
00000230: 14da 5fbe bbb6 abbd e40f 133d b0da 6abc
00000240: 478c 663e ba39 533e a6c3 c33e 1d4d 8bbe
00000250: 4e99 46be 169f 86be 0457 27be 38c9 3cbe
00000260: fc7e 07be 70d5 c93c 4f59 b53d 457c 373e
00000270: b2a0 0abe 2ab2 0cbe 17e2 3abe 1581 e73a
00000280: 818a 673b 516f bb3d ba74 2f3d c092 a23d
00000290: 8211 243e 86b9 ba3d 98dc 5f3d 77cb 363e
000002a0: ec23 55bd b2cf 413c ae84 b03d fdc0 c5bd
000002b0: 9e7b 43bd 94c9 86be 5d3c a2bb 325a 0f3e
000002c0: a00d 103d a8b3 8abd 94ad b83d a69f bcbd
000002d0: 263c 4e3e 9d0b ef3d d7cf 6d3e c57b 9fbe
000002e0: c9e3 a1be 31d2 a6be f0c0 d1bb 2e0f bfbb
000002f0: 370d 90bd 0c6b 313e 7725 2d3e 3e60 a03d
00000300: bea3 ffbd 3bf7 76bd 766a 24be 53a3 773e
00000310: 0224 413e 9dfc 7a3e a0f6 053e 2dfa 663e
00000320: d915 033e abad 08be 6adb 6bbe d6df 84be
00000330: 0baf a23e f1e3 c33e 5bc9 933e dea6 033c
00000340: f012 b5bc 4494 b2bd 0796 2c3e 5d54 053e
00000350: 70b3 523e d6fe 7e3e 11e6 953e cf2e b83e
00000360: 5aed 833d 5b52 fd3d a758 e23e 7843 a0bc
00000370: 699d 483d 8e8c 963c 1389 15be bc6e 39be
00000380: 3102 24be 3e93 863e c1f6 013e 2b6c 9b3e
00000390: b1fe 4abf dab1 24bf 922b 2bbf 3cf9 623e
000003a0: 3976 bf3c f469 8d3e d22f de3d a27c a7bd
000003b0: d1c8 afbd 0b4e 1ebe 8350 94bd 980c e9bd
000003c0: a154 adbd b501 143d b057 60bc f607 d4bd
000003d0: f862 b63c 518b cbbd 6dc2 88bd b325 8dbe
000003e0: 4ff0 6dbe 65e3 473d ebb2 3abd 8a59 86bd
000003f0: 96ed 073e 82df 043d be72 55bd 8529 be3c
-0.16003565 -0.02191041 -0.12210226 -0.06785413 -0.051414534 -0.05755643 0.26446036 0.36089513
0.21290922 0.13446952 0.1249534 0.11423713 0.14526688 0.12170413 0.11547195 -0.25530583
-0.23599155 -0.25661576 -0.032035396 -0.011932592 0.04732809 0.0117615815 -0.11601191 -0.07130014
1.0839043 0.93448997 1.0175737 -0.27142698 -0.2813826 -0.34071264 -0.3263073 -0.22471856
-0.3896613 0.043929264 -0.091422476 -0.124544166 -0.10017913 0.085163414 -0.09782528 -0.18331441
-0.15917528 -0.2103439 0.19962576 0.02536492 0.07358828 -0.11943082 0.06854562 0.09109921
-0.06997448 -0.06313307 -0.013113437 0.11913811 0.0072823083 -0.025634898 -0.08520205 -0.2803186
-0.1457888 -0.2961182 -0.27293274 -0.26207787 -0.18651628 -0.02729848 0.0049343756 0.09588247
0.008499348 -0.020500422 0.0575646 0.11574588 0.19145699 0.073386505 -0.097296305 -0.06406918
-0.13262707 -0.04442325 -0.009765968 0.006158863 -0.027359605 -0.09415984 0.053676024 0.01332111
0.025122348 -0.32580817 -0.16273163 -0.2237407 0.2108976 0.1300149 0.09691869 -0.299194
-0.20696151 -0.34035468 0.008752327 -0.013767301 0.082190454 0.26487076 0.12718223 0.08723431
0.28028458 0.24666218 0.061259083 -0.05283148 0.016340755 -0.16449557 0.23262799 0.19458888
0.12795398 -0.23183505 -0.26626045 -0.34975857 0.067516625 -0.022861283 -0.22927241 0.2654167
0.17418297 0.36408934 -0.16381975 -0.2710107 -0.17814831 -0.45270383 -0.35798708 -0.42130855
-0.2089627 -0.17421892 -0.26925626 -0.36848897 -0.43268332 -0.46088958 0.18481934 0.23864487
0.25679109 0.1113046 0.17204653 0.31569853 -0.05276925 -0.06404031 0.06258588 0.4964018
0.34034255 0.30386946 -0.29266134 -0.18402873 -0.21860534 -0.083844624 0.035903826 -0.014334366
0.22514449 0.2062749 0.38235205 -0.2720727 -0.19394419 -0.26293248 -0.16341788 -0.18436134
-0.13232034 0.024637908 0.08854925 0.17918499 -0.13537863 -0.13739839 -0.18250309 0.0017662371
0.0035330357 0.09152091 0.04283593 0.079381466 0.16022304 0.09117417 0.054653734 0.17851053
-0.05203621 0.011829304 0.08619057 -0.0965595 -0.047725312 -0.26325667 -0.0049510435 0.1399925
0.035169244 -0.06772548 0.090174824 -0.09210138 0.20140132 0.11672137 0.23223816 -0.31149116
-0.316191 -0.32582238 -0.006401174 -0.005830667 -0.070337705 0.17325991 0.16908823 0.07830857
-0.12482403 -0.06029437 -0.16056237 0.24183397 0.18861392 0.24510427 0.13082361 0.22556372
0.12801303 -0.13347499 -0.23032919 -0.25952023 0.31774172 0.38259843 0.2886456 0.00803539
-0.022103757 -0.08719686 0.16854106 0.13020463 0.20576262 0.249019 0.2927709 0.35973212
0.064417556 0.12369224 0.4420826 -0.019563422 0.048978243 0.018377569 -0.14603071 -0.18108648
-0.16016461 0.26284212 0.12691785 0.30355963 -0.7929488 -0.6433388 -0.6686336 0.22165388
0.023371803 0.27619898 0.10848965 -0.08178069 -0.085832246 -0.15459459 -0.07241919 -0.11379355
-0.08463407 0.03613444 -0.013692781 -0.10353081 0.022263989 -0.09938682 -0.06677709 -0.27567825
-0.23236202 0.048800845 -0.045580786 -0.06560047 0.13274226 0.032439716 -0.05211138 0.023213157

pose_encoder.net.0.0.bias f4 [32]
00000000: 796f 01be df44 89bd 757e dabc 2930 8b3c
00000010: fc08 723d 9001 76bb e024 27bc 6e21 e2bd
00000020: 669a 603e c84d e0bc 7fdf a03b f65c d0bd
00000030: aa24 2fba 116d cabd a759 743e 67f6 28be
00000040: d7fc a03d 4302 4fbe 9cd5 3dbe 2042 c23d
00000050: 8fb3 dabd d1e5 a43d 454f fc3d 89e7 bcbb
00000060: 931f 06be 31c8 e7bd f4a0 0e3e 2604 d63c
00000070: 3def 6c3c fdd1 723b 9728 c83d d118 d83d
-0.1264018 -0.06702589 -0.026671628 0.016990738 0.0590906 -0.0037537552 -0.010201663 -0.110415325
0.21933898 -0.027380839 0.0049094553 -0.10173981 -0.00066811836 -0.09884084 0.23862325 -0.16500245
0.078607254 -0.20215707 -0.18538517 0.094852686 -0.10678779 0.080516465 0.12319807 -0.005764906
-0.13097982 -0.1131748 0.13928586 0.026125025 0.014461336 0.0037051432 0.09773367 0.10551608

pose_encoder.net.0.1.weight f4 [32]
00000000: 1765 2e3f e4ed 8d3f d25d 283f 4265 743f
00000010: aef3 2c3f 0684 313f d603 0d3f 1a6d 243f
00000020: b322 943f 496e 413f 1e09 393f e0e8 863f
00000030: 0f72 313f 3add 523f d4ca 073f 96ff 7b3f
00000040: 0849 5f3f ad49 6d3f 3825 303f 1e8b 1a3f
00000050: fddb 923f 81ec 723f 4339 163f 775d 413f
00000060: 9a21 b83f a1de 833f 7ccc 3d3f 6aa6 a73f
00000070: 9602 953f a649 a53f 6ff0 473f 0ff6 3c3f
0.68123 1.1088223 0.6576816 0.9546701 0.67559326 0.69342077 0.5508398 0.64228976
1.1573089 0.75558907 0.72279537 1.0539818 0.69314665 0.82368815 0.53043866 0.9843687
0.8722081 0.92690545 0.6880679 0.60368526 1.1473385 0.94892126 0.58681124 0.7553324
1.4385254 1.0302316 0.74140143 1.309766 1.1641414 1.2913101 0.7810125 0.73812956

pose_encoder.net.0.1.bias f4 [32]
00000000: 2781 263f cc09 89be 6224 ba3e e736 b3be
00000010: 7b9a a93f 4d64 0e3f 5635 b13f 49b6 b63f
00000020: 9166 d5be 5ed3 173f afe3 213e a048 90bf
00000030: cf9f 793f 4017 a93e 0f44 763f 8b00 40be
00000040: ca17 8f3d 04ea 393c 4930 193f fae8 353f
00000050: 34df c43e add0 783f 2693 993e dfa8 283f
00000060: f5ee e7be 43bf 393f a252 643f 8171 18bf
00000070: 69d3 74bf fd12 5a3e bbdf 113f 1763 d53e
0.6504082 -0.26765287 0.36355883 -0.35002825 1.3250269 0.55621797 1.3844402 1.4274379
-0.41679814 0.59306896 0.1580951 -1.1272163 0.97509474 0.3302555 0.961976 -0.18750207
0.06986959 0.011347298 0.598393 0.7105862 0.3845154 0.97193414 0.29995078 0.65882677
-0.45299497 0.7255747 0.8918859 -0.59548193 -0.95635086 0.21296306 0.5698201 0.41677162

pose_encoder.net.0.1.running_mean f4 [32]
00000000: 5e75 9c3e b933 bdbb 6ac0 073c 7a25 b4be
00000010: 3db2 97be 9440 3ebf 0ccf 873f 93b4 9e3e
00000020: 0a52 a23f 4627 033e 6d2e 013f 027c 82bc
00000030: 7fab c33e 94ef b63e 3d9b 963e 876a 55bf
00000040: 1746 dc3e df9b 523f 3c19 7fbe feb1 793f
00000050: 7346 353b 6341 9dbe 5a3f c03e 8031 86be
00000060: 5cb5 e5be 5b8f 163e 1ca6 bfbf 5328 03be
00000070: 6db6 0a3f 7e9f 3f3c 2716 a6be 674b 8cbd
0.30558294 -0.005773988 0.008285621 -0.35184842 -0.29628173 -0.7431729 1.0610061 0.30997142
1.2681286 0.1280795 0.50461465 -0.015928272 0.3821678 0.3572966 0.29415312 -0.8336567
0.43022224 0.8226909 -0.2491197 0.9753722 0.00276604 -0.3071395 0.37548333 -0.2620964
-0.4486493 0.14703123 -1.4972568 -0.12808351 0.5418461 0.011695741 -0.32438776 -0.06850319

pose_encoder.net.0.1.running_var f4 [32]
00000000: 9363 f53f f6da 923f 82dc a83f c2c3 4e3f
00000010: 7fc5 a83f 6856 9e3f 5816 663f c347 983f
00000020: 1648 0f40 4af6 963f a400 a23f fc87 0640
00000030: c4f0 d83f d288 0540 a038 4d3f bf8a 2340
00000040: 88fa b93f 826c f53f b6c2 9b3f 7cbb 883f
00000050: e748 843f c13f 2340 48f1 4e3f 212e d13f
00000060: 9df0 a43f 54a8 4140 cbc7 6b40 7fb6 2440
00000070: 9897 d43f 52b6 3040 e8d0 a13f d171 513f
1.9171013 1.1473072 1.3192294 0.8076745 1.3185271 1.2370119 0.89877844 1.18969
2.2387748 1.1793911 1.2656446 2.1020498 1.6948476 2.0864758 0.8016453 2.5553434
1.4529581 1.9173739 1.2168796 1.0682216 1.0334748 2.5507662 0.80836916 1.6342202
1.2885929 3.025899 3.6840694 2.5736387 1.6608763 2.761128 1.2641878 0.81814295

pose_encoder.net.1.0.weight f4 [64, 32, 3]
00000000: fff2 fd3b 36ad eebd d605 aa3c 101a c3bc
00000010: ad56 da3d f7a0 ba3d a487 473e 2980 573e
00000020: 875b 253e a7a2 0cbe 7145 cbbd c509 0fbd
00000030: e643 85be a886 7ebe c0c4 b8be 4b84 4a3e
00000040: d716 c73d 7f26 ff3c 7182 153e 436e 5b3e
00000050: 5b09 bf3e bd49 e33c 2aae 0d3d 146b 9e3d
00000060: 5afc d63d 9bec b63d 1768 653d 373d 8abe
00000070: 7cd1 d0bd 1d72 69be 5ecf 48be 9678 8ebe
00000080: 01be bfbe f4c1 10bf 3a11 f2be 61d7 c5be
00000090: 776e 973e 5e59 e73e 9463 f83e a6fa f73e
000000a0: 996b e23e f723 103f b8ef ac3c 1260 833d
000000b0: 7826 ad3d 7e3a 31be 7f77 58be d972 88be
000000c0: 4bf8 03be 1f81 2bbe b02c abbe 0ab4 a13e
000000d0: d1e1 bb3e 4869 ec3e 0fc4 853c 558e 943d
000000e0: f275 c5bd c2cb f63c a793 063d 8062 023e
000000f0: 767f 99bd 7ed5 d5bb c831 c5bd bd93 ea39
00000100: 57fc 873d 8a13 903d 678f 623e 5ad6 ff3d
00000110: 9399 c83d 7f8a bbbd c34d 94bb 648d 9dbd
00000120: 8080 a1bb d078 16be f48b b2bd 348b c43e
00000130: c695 d33e 5e81 e73e 522d 7d3d 6c2f 223b
00000140: 940b fe3c 3520 08be 27ab 93bd f08a 843d
00000150: 96e0 633c 5e9a a73c ae7b 98bd ce93 873c
00000160: c44a b0bc 8000 873d 53c4 74be 5ac8 29be
00000170: d1bc 0dbe d1b8 133e 6aa9 1e3e 0b36 423e
00000180: ddfc 1ebd 2b67 f23d b36c 41bd 0e5c 813d
00000190: 78d6 4d3c 2765 1dbd 2ebb 82bc 57ae 40bd
000001a0: 1f07 80bd 2f0e dd3c 5584 893c a32d 1cbd
000001b0: 67d6 a6bd 25a4 e4bd 39a9 3dbe 01fd 59bf
000001c0: a8af 45bf 1922 4fbf f6a1 393e b65f 5f3e
000001d0: 9f0f 393e b248 54bd a826 3fbc 2244 aabd
000001e0: 5cb5 9dbe a948 6dbe b770 86be 4fcf 94bd
000001f0: bb2b f73c cc6c 003d d05a 3abc 8090 2f3d
00000200: 1d2e 013d dbc9 17be a0f6 95be 470e 0ebe
00000210: b12a 89bd b9c1 62bc b94b edbd 3dfc d5bd
00000220: 4c16 bebd f1ba 7fbe b51e 2f3e 145b d03d
00000230: f36f 203e 17a8 c13b e8b6 d3bb a78a 493d
00000240: caa9 76bc 788a 2b3d a05b ddbc b8c0 4f3d
00000250: b252 6fbd 896e 5a3d cdb7 b0bd 5c53 d23b
00000260: 6967 523b ae21 dc3c 1162 a6bc 799d a23c
00000270: 4224 86bd f556 dd3d c063 c43c 7c4d 4fbe
00000280: 8244 94be 9ae1 8abe 827d 12be cb6a afbc
00000290: 9a8d 1abe 62ce 56bd 91c9 8f3c 3504 cabd
000002a0: 1654 853c aa3f fdbc fb80 bebc 4cce 6cbd
000002b0: 3aec 56be 1260 6abd 4f75 be3d 7aba 823c
000002c0: fc5e b23d fc42 c9be e686 8cbe 6411 9abe
000002d0: ab26 6d3e 22c3 353e c68b ac3e cf24 3ebf
000002e0: 388c 23bf 3b7a 31bf d0a7 cfbd 144d dabc
000002f0: 2be9 31bd 93bc 6f3c c234 e1bc 59ed af3d
00000300: 60e4 1abe 19a6 9ebd bec4 343c deb6 a23c
00000310: 5377 09bd 3e56 873d c9a6 1ebe 00e2 0fbe
00000320: e104 4dbd 8532 02bd 033f ae3b e7fe 62bd
00000330: 3ee4 9ebe b3fb 06be b896 49be ceb1 5abe
00000340: ce51 61be 82c0 84be a400 17be 1cd2 3ebe
00000350: ad67 27be 121e 213e a8d3 803d 7eda 473e
00000360: 020d c7bc 160c bbbd 9909 e9bc 7fa7 843c
00000370: d28c 513d 61c4 d23d 1127 14be a16b 3c3d
00000380: 7933 07be 2a8d e33d ec51 113e bee0 423e
00000390: bc52 3b3e 19c8 393e 7759 843e 945e 413f
000003a0: 2944 2b3f 645c 2a3f 9578 483d 7d98 be3d
000003b0: 15f9 83bd 5ddc 9e3e e62a de3d 31fc 9b3d
000003c0: 728e ae3e 45d4 7a3e fb17 ab3e 4945 5c3e
000003d0: 456e ab3e c469 fb3e 7ba3 bf39 dc4b 71bd
000003e0: c1d5 dabd 745c f03d a42c 973d 6761 213d
000003f0: 4223 c43d e50d 073d c593 133e 69b4 7bbe
0.0077499147 -0.11654131 0.020754736 -0.023816139 0.10661063 0.09112733 0.19485337 0.21044983
0.16148196 -0.13733922 -0.09925354 -0.034921426 -0.26028365 -0.24856055 -0.36087608 0.19777028
0.09721153 0.031146286 0.1460054 0.2142878 0.37311825 0.027745122 0.034589924 0.07735267
0.10497351 0.08931848 0.05600747 -0.26999828 -0.10196206 -0.22797437 -0.19610354 -0.27826375
-0.3744965 -0.5654595 -0.47278768 -0.38640884 0.29576465 0.4518537 0.48513472 0.48433417
0.44222715 0.5630488 0.0211104 0.06414808 0.08454603 -0.17307469 -0.21139334 -0.26650122
-0.12887685 -0.16748475 -0.3343253 0.3158267 0.36695722 0.46174073 0.01632884 0.0725371
-0.09641637 0.030126456 0.032855656 0.12732887 -0.07495014 -0.0065256944 -0.09628636 0.00044742032
0.06639927 0.07034977 0.22125016 0.12492056 0.09794917 -0.091572754 -0.0045258715 -0.07692984
-0.0049286485 -0.14694524 -0.087181 0.38387454 0.41325206 0.45215887 0.0618108 0.0024747504
0.03101138 -0.13293536 -0.07210379 0.06471813 0.013908526 0.02045935 -0.07445465 0.016549971
-0.021520026 0.06591892 -0.23903017 -0.16580334 -0.13841559 0.1442597 0.15494314 0.18965928
-0.038815368 0.11836084 -0.047222804 0.06316386 0.01256334 -0.038426545 -0.015958395 -0.047041263
-0.06251358 0.026984302 0.016786734 -0.03812946 -0.08146363 -0.111641206 -0.18521585 -0.8515168
-0.77221155 -0.80911404 0.1812819 0.21813855 0.18072365 -0.05182714 -0.011666931 -0.083137766
-0.3080243 -0.23172249 -0.2625787 -0.072661035 0.03017222 0.031353757 -0.01137419 0.042862415
0.031538118 -0.14823096 -0.29289722 -0.13872634 -0.06697596 -0.013840132 -0.115867086 -0.10448501
-0.092815965 -0.24973656 0.17101558 0.10173622 0.15667705 0.0059099304 -0.006461013 0.049204495
-0.015055129 0.0418801 -0.02702123 0.0507209 -0.058428474 0.05332807 -0.08628807 0.0064186286
0.0032105094 0.026871528 -0.020310434 0.01985048 -0.065498844 0.10807601 0.023973346 -0.20244402
-0.28958517 -0.27125245 -0.1430569 -0.021413228 -0.15093079 -0.052442916 0.017552169 -0.09864084
0.016275447 -0.030914146 -0.023254862 -0.057813928 -0.20988551 -0.057220526 0.092997186 0.01595806
0.08709523 -0.39308918 -0.2744667 -0.30091393 0.23159282 0.17750219 0.3370039 -0.74274915
-0.6388583 -0.69327134 -0.101394296 -0.026648082 -0.043435257 0.014632362 -0.027490977 0.08590192
-0.1512618 -0.07746524 0.011033235 0.019862588 -0.033561062 0.06608246 -0.15493311 -0.14051056
-0.05005348 -0.03178646 0.00531757 -0.055418875 -0.3103351 -0.13181953 -0.19686401 -0.2135689
-0.22003862 -0.25928122 -0.14746338 -0.18634838 -0.16348143 0.15734127 0.0629037 0.19516942
-0.024298195 -0.091331646 -0.02844696 0.01619315 0.051159687 0.102913626 -0.14468028 0.04600108
-0.13203229 0.11110909 0.14191407 0.19031045 0.1829328 0.18142737 0.25849506 0.7553494
0.6690088 0.66547227 0.04894312 0.093064286 -0.06443993 0.310275 0.10848026 0.07616461
0.34093052 0.24495037 0.33416733 0.21510805 0.33482566 0.4910413 0.0003655216 -0.058910236
-0.106853016 0.11736384 0.073815614 0.03939953 0.095770374 0.032972235 0.14411838 -0.2458054

pose_encoder.net.1.0.bias f4 [64]
00000000: 9e64 0c3d a21d e5be 23e6 a13e b799 8a3e
00000010: d020 59bb ba5a 333e 3dec 973c c897 293e
00000020: e4c6 393e dac3 5dbd 1eba 423e cefa 7cbe
00000030: 0879 2dbe 074a f93d cf6e 553d de2c 883d
00000040: 602f 10bd b5cb 933e 776d 913e 583e e33d
00000050: a1cd cd3d a554 463e 289f de3d 4ad1 3cbe
00000060: 9792 2a3e 0532 7f3d 7f42 b5be ebea 2b3e
00000070: 83c9 0a3d 4f89 1a3d cc99 31be 210e 823e
00000080: f5d6 c23e 7e83 25be 3bcd 613e d500 bd3e
00000090: 5cfa f33d 86f5 553e d1dc f0bc 8762 f43e
000000a0: 0d4d 723e 4b56 5b3e ea9d dbbd 56de 723d
000000b0: 4e9c 623c 3da9 5f3e fc1b 71be 513f 603e
000000c0: 7bae dabe aff0 633d 4c1a bd3d f8e9 d33d
000000d0: 2a8a a53d 9340 aa3d 5c6e 1a3e d04d 673e
000000e0: 2333 223e a570 bfbd e4d3 503d c543 673e
000000f0: a905 353e 5fae e63d 4347 2b3e 20fe 4abe
0.034275644 -0.4474917 0.31620893 0.270704 -0.003313113 0.17515078 0.018545264 0.16561806
0.18142277 -0.054141857 0.1901631 -0.2470505 -0.16940701 0.12172323 0.05210763 0.06649183
-0.03520143 0.28866354 0.28403828 0.110958755 0.10048986 0.19368227 0.108702004 -0.18439212
0.16657482 0.06230356 -0.35402295 0.16788833 0.033883583 0.037728604 -0.17343825 0.25401405
0.38054624 -0.16163442 0.22050945 0.36914697 0.11912987 0.20894441 -0.029402168 0.4773142
0.23662205 0.21419637 -0.10723479 0.059294067 0.013831211 0.21841903 -0.23545831 0.21899153
-0.42711243 0.055649456 0.09233531 0.103473604 0.08082993 0.08313098 0.15081161 0.22588277
0.1583982 -0.09347657 0.050983325 0.22584446 0.1767794 0.112637274 0.16726403 -0.19823503

pose_encoder.net.1.1.weight f4 [64]
00000000: fd1e 053f eea9 7d3f dec4 fd3e 80cf 0a40
00000010: 4801 a63f e7ab f33e 1cff a63f dc8c 7c3f
00000020: ca73 bf3f b5a2 263f aa76 a93f f78a fc3e
00000030: 63f7 913f 3381 8c3f 2831 4d3f d8fe f33e
00000040: f7e9 2f3f 080b f73e db4a 153f 68ad f93e
00000050: 410c 343f af94 443f af7c 503f 45d5 2a3f
00000060: 7a51 1d3f e9bc 4e3f 5df1 103f 01c8 c73f
00000070: 3700 903f 2589 8d3f 05fd cd3e 1149 053f
00000080: 978d 513f 50cc cd3e 8343 193f 77f5 5a3f
00000090: ad65 393f 5048 973f 51f1 db3e 54f7 193f
000000a0: cbe9 803f 1288 553f d057 553f 6fca b33e
000000b0: fa7b 323f 2c1f 2e3f a74a ba3e c874 023f
000000c0: 58b0 073f 7dc0 253f 3dfc 8e3f f990 2a3f
000000d0: 271f 843f 7798 cf3f d71b 3c3f 6b36 443f
000000e0: c88b 573f 9e36 3f3f 59a5 da3e 749a 543f
000000f0: 7279 133f 6f65 e33f 859e 073f 0c17 0f3f
0.5200041 0.9908742 0.4956426 2.1689148 1.2969141 0.4759209 1.3046603 0.98652434
1.4957211 0.6509202 1.3239338 0.49324772 1.1403621 1.0976928 0.8015313 0.47655368
0.6871638 0.48250604 0.58317345 0.4876511 0.703312 0.76789373 0.8144025 0.66731673
0.6145245 0.80757004 0.5661829 1.5607911 1.1250066 1.1057478 0.402321 0.52064615
0.81856674 0.4019494 0.5986864 0.855308 0.7242077 1.1818943 0.42957547 0.6014302
1.0071348 0.8341075 0.83337116 0.35115382 0.69720423 0.68016315 0.3638508 0.50959444
0.53003454 0.6474684 1.1170727 0.6662746 1.0322007 1.6218404 0.7347998 0.76645535
0.84197664 0.74692714 0.42704275 0.83048177 0.57607186 1.776533 0.52976257 0.5589454

pose_encoder.net.1.1.bias f4 [64]
00000000: e995 46be f949 68bf 8136 a43d 98f2 55bf
00000010: 20b8 1f3c 3851 233e a9ca 073f e559 85bf
00000020: 70b0 eebd 793c 223e 38a6 08bf dda1 03be
00000030: 2a49 223e 7b89 93bf 04fc 16bf a715 f4bd
00000040: d483 d13c cea6 5abe 0b3d c9be c8f1 0cbd
00000050: 98da ffbe cc52 96bd ac06 2dbf b1af e6be
00000060: 00e7 40bd be56 f9be 758b 58be a792 2fbd
00000070: 7754 43bf e799 d1be 85c0 363f 2b57 9bbd
00000080: 602b 88bf e885 b83d eba6 b4be 4e55 b13c
00000090: 646a 92bd df4f 3bbf 6c1b 883e 4477 9dbe
000000a0: 5f4c 2fbf 30e7 dabe 6db3 ec3d 8126 2c3e
000000b0: 7d8b bcbe 4ad8 5fbe c6b4 1cbd 0c47 9dbe
000000c0: 0660 a73e 9bef c53e d3e9 34be 6500 18be
000000d0: fe3c 9abd b2ef c6be a25b adbe 463b babe
000000e0: 82d0 c33e 8be2 dcbd 4abb b63e c083 2dbf
000000f0: ab31 1d3c 2e28 933e 9ac9 93be 3d8c 9c3e
-0.19393124 -0.90737873 0.08018208 -0.83573294 0.009748489 0.15948951 0.5304361 -1.0418059
-0.116547465 0.15843381 -0.5337863 -0.12854715 0.15848222 -1.1526331 -0.58978295 -0.11918192
0.025575556 -0.21352693 -0.39304385 -0.034410268 -0.4997146 -0.07340011 -0.67588305 -0.45055917
-0.0470953 -0.48698992 -0.21146949 -0.042864468 -0.7630076 -0.4093773 0.7138751 -0.07584985
-1.0638237 0.090099156 -0.35283598 0.021647122 -0.07149199 -0.7316875 0.2658342 -0.30755055
-0.6847591 -0.42754507 0.1155766 0.16811563 -0.3682517 -0.21859851 -0.038258336 -0.30718267
0.32690448 0.38659367 -0.17667322 -0.148439 -0.075311646 -0.38854748 -0.33858973 -0.36373347
0.38245016 -0.10785397 0.35689765 -0.6777916 0.009594361 0.28741592 -0.28864747 0.30575743

pose_encoder.net.1.1.running_mean f4 [64]
00000000: 01f1 6040 b174 8fc0 2bf8 87bf 0af4 e3be
00000010: 6250 0e40 2b2d d0c0 6802 8d3f 93b2 89c0
00000020: a32d 4ec0 b8ba d33f 5748 b23f c891 b13f
00000030: 1566 3740 dc17 84c0 8b5e e73f 594e 09c0
00000040: 952d d9bf 0fd3 af3f df05 95c0 407a 52c0
00000050: 92fc c3bf 7811 98c0 a745 8bbf 45e7 5040
00000060: 15d6 e0bf 5cac 1cc0 7766 e040 d829 fbbf
00000070: 516e 8640 b70b 3dc0 6b8c a940 4c96 12be
00000080: cac8 71c0 5d6b 6140 240d 54c0 0e85 9fc0
00000090: ec95 14c0 b3f1 22bf 0f68 eebf ce47 59bf
000000a0: ed67 c6bf d1a5 00c0 f6bf c33e b7c8 06c0
000000b0: 4396 cd3f 15d2 7cc0 0a2f 0140 1c05 ccbe
000000c0: 70b0 5b40 d9e9 7f3f 96f1 b7bf 403f c0bf
000000d0: 3b5a 58bf 5562 08c0 6d7a 4e40 6ef2 383e
000000e0: 2b37 5d3f ef76 3dc0 1fa4 1c40 8774 b7c0
000000f0: 3971 7cc0 13f8 4040 828c 50be 7c67 b740
3.5147097 -4.4829946 -1.062261 -0.44522125 2.2236562 -6.5055137 1.1016359 -4.3030486
-3.2215354 1.6541357 1.3928326 1.3872614 2.8656056 -4.1279125 1.8075727 -2.145407
-1.6967036 1.3736285 -4.6569667 -3.2887115 -1.5311453 -4.7521324 -1.0880631 3.2641156
-1.7565333 -2.44802 7.012508 -1.9622145 4.2009664 -2.95384 5.298391 -0.14315146
-3.7778802 3.522178 -3.313302 -4.984992 -2.3216505 -0.63650054 -1.8625506 -0.8487519
-1.5500466 -2.0101206 0.38232392 -2.1060007 1.6061481 -3.9503224 2.018496 -0.39847648
3.432644 0.999662 -1.4370601 -1.5019302 -0.8451268 -2.1310017 3.2262223 0.1806123
0.86412305 -2.9603841 2.4475172 -5.7329745 -3.9444106 3.0151412 -0.203661 5.7313824

pose_encoder.net.1.1.running_var f4 [64]
00000000: 8dd3 c740 86f1 ac40 ee87 ac40 0c0e 7440
00000010: 16fb 8e41 5934 7140 bd46 9c40 b2ce 6c41
00000020: 25a6 c740 33bf 9240 eb1b 8f41 b976 4d40
00000030: 8537 b340 1a60 4141 323d 4241 e1fc 6940
00000040: ba30 1c41 f584 8e40 ef43 7540 e032 9540
00000050: b898 c840 91d9 9041 92b0 a540 cc45 5a40
00000060: bc90 2241 f072 d340 c5ac 1b40 95c7 e840
00000070: 8def 6541 a6bc fc41 9b72 a040 fcf2 5240
00000080: 1226 9f40 4a55 3940 8ce7 d840 a20e 7840
00000090: e717 e740 42c1 4241 db75 1d41 f6e0 6b40
000000a0: b1e8 b241 93a9 2941 5078 7a41 d46f 2f40
000000b0: 8a26 bb40 63bc ce40 db24 3940 9d34 1740
000000c0: 944c bb40 7f6e 4241 51ef b441 c81f 3b41
000000d0: 3045 4641 5b28 e740 daa2 1041 6ad4 a640
000000e0: 56a5 5340 7b75 c941 0e73 ac40 d584 f440
000000f0: c939 2640 c0df ec40 1546 2540 e68e 2741
6.244574 5.404483 5.391593 3.8133574 17.8726 3.76882 4.883635 14.800463
6.2390313 4.5858397 17.888632 3.2103713 5.6005273 12.085962 12.13994 3.6560595
9.761896 4.45373 3.8322713 4.6624603 6.2686424 18.106234 5.177804 3.41051
10.160336 6.6077805 2.43242 7.274363 14.370984 31.592113 5.01399 3.2960806
4.9733973 2.8958306 6.778265 3.875893 7.221668 12.172182 9.841273 3.6856055
22.363619 10.6039 15.654373 2.7412004 5.8484545 6.4604964 2.8928745 2.3625863
5.853098 12.151977 22.616854 11.695259 12.3918915 7.223676 9.039759 5.2134295
3.3069663 25.182364 5.389045 7.641215 2.597277 7.402313 2.5824025 10.472387

pose_encoder.net.2.0.weight f4 [64, 64, 4]
00000000: 2301 4ebe 1ef4 e6bd c3d2 aebd 2901 01be
00000010: d10d 38bd b496 713d b43b 1d3c 3c96 8fbc
00000020: d474 323e f05d de3d 530c 1d3e 4e9d 223e
00000030: e880 aabd 63ae 2cbe 8be4 20bd 81a6 47bd
00000040: 9827 f5be e663 a9be aff2 b2be 3419 c7be
00000050: af30 9d3d a5f9 84bd dace 2cbd aae6 4e3d
00000060: 23d9 233e d69d babc 82f0 2ebd bfae a03d
00000070: 9340 7d3f 9382 3e3f d877 383f 79a3 503f
00000080: d699 1dbd e24b a3bd 5830 f93c 3e28 d33d
00000090: 30f2 b2be cc74 33be 0a96 02be 11dd 65be
000000a0: f720 5dbe 54f4 5bbe 6555 50be cce9 4cbe
000000b0: 6ab1 9dbe e63c acbe 442a 9dbe 56a8 77be
000000c0: 7982 c03d 4567 a43d b871 26bd 1d31 f4bd
000000d0: 4ef1 23bd 32b0 71bd 9bea 96bd 4b96 62bd
000000e0: eee5 21be 860b 51be c857 55be 639b edbd
000000f0: 9725 b33e 6b57 033e 53ef 143e 3aef 873d
00000100: 2fc7 adbc 50d0 ee3d ecf4 8c3d 9bd9 ab3c
00000110: b21f 88bd 2966 d5bc 8b61 543d 8f05 3d3d
00000120: 5eb8 bf3d d492 793d 9e6f 2c3e 08a1 2b3e
00000130: f01e 80be e89e 0bbe 9319 38be aeaa 8dbe
00000140: 5974 1dbe 4503 72bd c72e 173b 6aed 38bd
00000150: d8d9 e0bd 638c 44be c6b2 84bd 2a9f 9abd
00000160: 7dc7 5ebe 2b2a 2bbe 36d5 59be 5067 7bbe
00000170: 2b82 b3bd 5246 0bbe a8a3 acbd abff acbc
00000180: 7b63 68bd 98ed b23b 3aa5 113d 7abc f4bd
00000190: 4b45 89be 10c0 fcbd 0bdd 90bc 355b 9fbe
000001a0: b2b1 8f3e 6a06 863e 478d 523e 8804 6d3e
000001b0: 6cf6 d53d d09e 723d 7ca7 f53d 23a4 7f3e
000001c0: 92dc 2dbe 3e35 fbbd 5e2b b8bd 2102 1dbe
000001d0: 737c 52bd 5895 e0bd 7b25 e9bd df1d 67be
000001e0: 46a1 fa3d 2a8a 4c3d 62b4 c1ba 92f1 4abd
000001f0: 1808 5c3e a020 0d3e 4064 553e a7a8 883e
00000200: 2aac 19bf a2f8 edbe 82bc dfbe 336c 51bf
00000210: 4856 13bc 6f92 873d 4925 9e3d 3702 933c
00000220: 8e98 7bbe 8d91 21be 3631 acbd b1ac 14be
00000230: fb59 533e 4dac 933e 7fb8 153e 4f40 4a3e
00000240: 625b 00be 9ce1 5dbe 885d 93be 323b 62be
00000250: 5c3e e8bc 5b10 ddbd 1142 86bc 8787 cbbd
00000260: afc6 30bd 5800 15be 0ef9 14be 125f d4bd
00000270: 697e 70be 837c 22be 75cc 33be 24bf 9abe
00000280: b3c9 e7bd 3fdd 11bd 8619 0c3d 9634 b3bd
00000290: edf8 a8be fcf6 3bbe 3b4d 14bd 6f4c 6cbe
000002a0: 9f8b 0b3e 1eb8 f03d 63d5 4b3d dff3 913d
000002b0: 7e86 51ba 9c9a 0ebe 499b 69be c56e 0abe
000002c0: c2b8 a73e 2ecd 473e e521 293e 6ffe af3d
000002d0: 3f73 41be e9f3 3bbe c5cd 60be 7bc8 f0bd
000002e0: 13c5 883d 243b 083e c2aa 803e 15fe 8b3e
000002f0: ba64 8cbe 7f3d 77be 0a83 5abe ddf2 3fbe
00000300: f2d6 ebbd 3a84 453c 7018 5dbd c89b 5dbe
00000310: ff21 7ebe 8d27 4dbe 23d3 2dbe 9391 71be
00000320: 38b0 c1be 345a a9be 9b71 b7be bb0f c6be
00000330: fc41 ad3e d4a1 fc3d af00 c63d eda3 aa3e
00000340: 8036 9f3d 5634 0b3e 6fa3 d23d 1421 45bd
00000350: 5346 26be a8e1 43be 6795 3cbe e2db 5ebe
00000360: b37d 843d 0dc3 353d f605 fc3c bac6 f83d
00000370: 7a73 d7bc b2d5 a63d 5c52 ab3d f67f 003e
00000380: 5211 de3d e9a8 9bbc eedd 7e3d 8026 e93d
00000390: b090 5b3e de7d b33e b4cc 973e 279d 933e
000003a0: 81c1 0b3e 889f 533e 6ba0 7c3e 09b4 693e
000003b0: 5bf0 2ebe 01d3 b9bd a660 a8bd ec3b 09be
000003c0: fbf0 a6be 7636 1abe cf25 06be 8f91 0fbf
000003d0: b29d abbe 39e4 65be 6b7b 86be 27ad dcbe
000003e0: 5ec3 ef3e b8f1 a73e 788c 623e 2054 9f3e
000003f0: 422f 843c a147 c43c 9c02 103e d131 133d
-0.20117621 -0.112770304 -0.08536293 -0.12598099 -0.04493505 0.058981612 0.009596754 -0.017527692
0.17427379 0.10857761 0.15336733 0.1588032 -0.08325368 -0.16863398 -0.039280456 -0.048742775
-0.4788177 -0.3308403 -0.34950778 -0.38886416 0.07675301 -0.064929284 -0.042189457 0.050512947
0.160008 -0.02278034 -0.042709835 0.0784583 0.9892666 0.7441799 0.7205787 0.8149944
-0.038476788 -0.07973458 0.03041856 0.1031041 -0.349504 -0.17525023 -0.12752548 -0.22447611
-0.21594606 -0.21479923 -0.20345075 -0.20011061 -0.3079942 -0.33640212 -0.3069631 -0.24185309
0.09399886 0.080275096 -0.040635794 -0.1192343 -0.040025048 -0.059005924 -0.07368966 -0.05531911
-0.15810367 -0.20414552 -0.20834267 -0.11601903 0.34989616 0.12826316 0.1454442 0.06637426
-0.021213142 0.11660826 0.06882653 0.020977786 -0.066466704 -0.02604969 0.051850837 0.04614788
0.09361337 0.06093104 0.16839454 0.16760647 -0.25023603 -0.13634837 -0.17978506 -0.2766928
-0.15376414 -0.05908515 0.0023068653 -0.04514829 -0.109790504 -0.19194178 -0.06479411 -0.075498894
-0.21755786 -0.16715305 -0.2127274 -0.2455113 -0.08765062 -0.13601044 -0.084296525 -0.021118006
-0.056735497 0.0054604523 0.035557963 -0.119500116 -0.2681068 -0.123413205 -0.017683527 -0.31124273
0.28065258 0.2617677 0.20561706 0.2314626 0.10447392 0.059233487 0.11994836 0.24964957
-0.16978672 -0.122660145 -0.08992647 -0.15332843 -0.051388215 -0.10965985 -0.11384102 -0.22569989
0.12237792 0.04993645 -0.001477849 -0.049546786 0.21487463 0.13781977 0.20839024 0.26691172
-0.60028327 -0.46478754 -0.43698508 -0.81805724 -0.008992739 0.06619727 0.07721955 0.017945392
-0.24569914 -0.1577818 -0.08407824 -0.14519002 0.20639794 0.28842393 0.14621161 0.19751094
-0.1253486 -0.21668094 -0.28782296 -0.22092894 -0.028350048 -0.10794135 -0.016388925 -0.09937959
-0.04315823 -0.14550912 -0.14548132 -0.10369696 -0.23485722 -0.1586781 -0.17558463 -0.30223954
-0.11317768 -0.035611387 0.03420403 -0.08750264 -0.33002415 -0.18355936 -0.036206465 -0.23076032
0.1362748 0.117538676 0.04976405 0.07126593 -0.0007992758 -0.13926166 -0.22813143 -0.13518818
0.32758147 0.19511864 0.16516836 0.08593451 -0.18891619 -0.18354763 -0.21953495 -0.117569886
0.06678214 0.1330381 0.25130278 0.27342287 -0.27420598 -0.24144553 -0.2133905 -0.18744989
-0.11515607 0.012055451 -0.053978384 -0.21641457 -0.24817656 -0.20034619 -0.16975074 -0.23590688
-0.37829757 -0.33076632 -0.35828862 -0.38683876 0.33839405 0.12335554 0.09668099 0.3332819
0.07774067 0.13594183 0.10285079 -0.04812725 -0.16237764 -0.1912905 -0.18416367 -0.21763566
0.06469288 0.044375468 0.030764561 0.12147279 -0.02630018 0.08146228 0.08365318 0.12548813
0.10843147 -0.019001441 0.062223367 0.113842964 0.21441913 0.35056967 0.29648364 0.28830835
0.13648035 0.20666325 0.2467057 0.22822584 -0.17083876 -0.09073449 -0.08221559 -0.13401765
-0.32605729 -0.15059838 -0.1310036 -0.5608148 -0.3351875 -0.22450341 -0.26266035 -0.43100855
0.4682874 0.32801604 0.22123897 0.3111887 0.016135816 0.023959937 0.14063495 0.03593618

pose_encoder.net.2.0.bias f4 [64]
00000000: 9d9d c53c 8bd8 653d 5bce c6bc 9b32 cdbd
00000010: cc93 433e 2940 41bd 4f9f 19be 4bc9 703d
00000020: d63b 04be 12f2 a43d 47dd 4e3e 65a3 673e
00000030: 5ada 71bd 3ed8 233f ba55 a03d b6dc 9b3d
00000040: 740b e4bc 3cdc 233e 5945 fc3e 932d 833e
00000050: dc68 803d c22e 023e 0700 893e cbae bd3d
00000060: 88f2 073c 0c3f 303d 37d8 463e 114d be3d
00000070: 0fd1 41bc 5408 17bd 5bb7 2cbb ef8f 78bc
00000080: 2d57 173e a8bd a33c 3231 fe3e 5fa0 e33d
00000090: 3b79 9d3e c1ae aa3d fb32 71bd 4d3f 083c
000000a0: fadf 37bc ef5d 353d 0496 01bd 4d4d eabe
000000b0: 854f ecbc ba25 6a3e 8e18 d23d af01 513d
000000c0: 712f 0e3e ddeb 563d 8fe4 403d 18c8 8d3e
000000d0: 9a81 133e 6cc0 d03c 7c01 883d 2188 99bd
000000e0: 25b0 333e 9f28 323f 5d8f b43d 9257 193e
000000f0: 54fc 013d e780 a93d a03e 17bc b979 063d
0.024123007 0.056114715 -0.02426832 -0.10019418 0.19099349 -0.04718033 -0.15002178 0.058785718
-0.1291345 0.08053984 0.20201598 0.22620924 -0.059046127 0.64001834 0.07828851 0.07610457
-0.027837493 0.16001981 0.49271658 0.25620708 0.0627 0.12713149 0.26757833 0.09261855
0.00829757 0.043028876 0.19418417 0.09292043 -0.011829629 -0.036873177 -0.0026354406 -0.015171035
0.14779349 0.019987896 0.49646908 0.11114573 0.30756554 0.08334113 -0.05888651 0.008315873
-0.011222834 0.044279035 -0.031637207 -0.457621 -0.028846512 0.22865954 0.1025859 0.051026996
0.13885285 0.05247103 0.04709297 0.27691722 0.14404908 0.025482379 0.06640908 -0.07496668
0.17547663 0.6959323 0.08816407 0.14974812 0.03173478 0.08276539 -0.00923124 0.032830928

pose_encoder.net.2.1.weight f4 [64]
00000000: 9f0f 273f c5bb a13f 71bb 093f 13d6 a23f
00000010: 720b 3a3f b1ab 333f b60f 5d3f 6423 5b3f
00000020: 6261 ce3e 1d97 283f 7afa 483f dfda 283f
00000030: 8845 233f 06e8 673f 9f34 a23f 45a3 1e3f
00000040: e1a0 4c3f b26f 813f 4d46 803f 4016 a13f
00000050: a728 133f c363 013f cdf6 303f c574 393f
00000060: bc97 973f b9b6 7c3f f9ed a03f 0a59 bb3f
00000070: da1f b63f 8caa d83e 5d2e cb3e e4bb 663f
00000080: f729 8e3f 81a6 023f 3160 963f fbda 0f3f
00000090: 5244 273f 802a 343f 8745 5d3f eb6f 9d3f
000000a0: d31b 1d3f f195 e63e 946c 543f ba40 8b3f
000000b0: 6a9e ff3e 8f73 f93e 66c1 183f c9fa 6d3f
000000c0: a413 333f 774b 433f 285e 5c3f 124a 943f
000000d0: ee82 823f 5883 153f 9e19 313f af94 f13e
000000e0: 010d 7a3f 584f 3f3f 947c 673f 86b6 293f
000000f0: 7849 1d3f ee58 9e3f 0a65 8e3f 7ad4 2b3f
0.6525821 1.2635428 0.5380164 1.272158 0.72673714 0.70183855 0.863521 0.85600877
0.40308672 0.6585558 0.78507197 0.6595897 0.6377797 0.90588415 1.2672309 0.6196788
0.7993298 1.0112212 1.0021454 1.2584915 0.57483906 0.5054285 0.6912659 0.724438
1.1843181 0.9871631 1.2572623 1.4636548 1.422847 0.42317617 0.3968381 0.9013045
1.1106557 0.51035315 1.1748105 0.5619351 0.65338624 0.7037735 0.86434215 1.229978
0.6137058 0.4503627 0.8297818 1.0879128 0.49925548 0.48720977 0.596701 0.9296079
0.69951844 0.76287025 0.8608117 1.1585104 1.0196207 0.5840354 0.69179714 0.4718375
0.9767609 0.74730444 0.90424466 0.66294134 0.6144023 1.2370889 1.1124585 0.6712109

pose_encoder.net.2.1.bias f4 [64]
00000000: 2788 dbbd f4e3 20be 0a31 9e3e 916c 71bd
00000010: 1afe ecbe 827f a93e d592 a6bf 42b5 82bf
00000020: d61e a43e 1a11 96be eeaa 6fbf e1b7 01bf
00000030: e879 433f 8ec1 30bf 3406 dcbe 835f c3be
00000040: b3de 2fbf ddf8 08bf 5487 39bf 3c1a b5be
00000050: 215d a9be f15c 75be eff9 c8be 5195 24be
00000060: 9469 f93e 3896 0c3e 4ddb dbbe 2a89 ecbe
00000070: 0d6e 65be e1a9 abbe b837 dd3d ee99 2ebf
00000080: 9dbd 93bf f27b ad3d addc 12bf b58f 9bbe
00000090: 81bc 8fbe 5f10 23bf 28d7 313f e4c4 13bf
000000a0: 8ff8 29bf 3669 3e3f cd18 75bf d9f4 a0bf
000000b0: a154 4b3e 8311 0dbe e228 aabd 3825 c1be
000000c0: 99ea 4fbe 44b4 26bf 6f77 b5be 5634 c2be
000000d0: 82b6 27bf 14bb b2be ab3f 9ebe 939c 933e
000000e0: 5049 8fbe 7b80 3cbf 8c83 adbd c828 5abe
000000f0: 053c 9fbd dbe7 23bc 281e a83c ca3f c1be
-0.107193284 -0.15711957 0.3089679 -0.058941428 -0.46287614 0.33105093 -1.301356 -1.0211565
0.32054776 -0.29309922 -0.93620193 -0.506712 0.7635789 -0.6904534 -0.42973483 -0.38158807
-0.6869919 -0.53504735 -0.7247212 -0.35371578 -0.33078864 -0.23961236 -0.39253184 -0.16072585
0.48713362 0.13729179 -0.4294075 -0.46198398 -0.22405262 -0.33528045 0.10801643 -0.6820363
-1.154224 0.08470906 -0.57367975 -0.30383077 -0.28073505 -0.63696855 0.6946893 -0.57722306
-0.66394895 0.7437929 -0.9574097 -1.2574722 0.19856502 -0.13776211 -0.08308579 -0.37723708
-0.20304336 -0.65118814 -0.35442683 -0.37930554 -0.6551286 -0.34908354 -0.3090795 0.28830394
-0.2798562 -0.73633546 -0.08472356 -0.2130462 -0.0777512 -0.010004009 0.020522192 -0.3774398

pose_encoder.net.2.1.running_mean f4 [64]
00000000: 8e18 04c0 4c0b c7bf dd85 8c3f cf01 58c0
00000010: dbbc 67c0 f19c 0340 b7f9 84c0 705f 5fc0
00000020: b2c9 473f dd0f 5e3f 0f16 43c0 c9f1 bdbf
00000030: 0863 b23f ded1 b4bf 0af5 a6bf b356 f9bd
00000040: 968d 89c0 0e85 48bf 6e74 52c0 9579 15c0
00000050: bc6e 15c0 b119 99c0 1b73 0cc0 a1cb 0ac0
00000060: ab61 993f 8668 2ec0 1c5a 60c0 7e2c f0bf
00000070: 3fff 01bf 0160 c03e 104a f23f 8d43 343f
00000080: bae9 a43f e88d 30be 206c 18c0 b9d6 e2bd
00000090: 8085 0fc0 e7a8 023e 9bf3 5140 5a02 3cbe
000000a0: 8444 50bf 6c35 72c0 f31d 65c0 9de4 a5c0
000000b0: f168 2e40 824f 9cbd 1fa3 e8bf 7ada 0ec0
000000c0: dce4 503f 50d2 8e3f 809f b93f df4b f0bf
000000d0: 90b6 38c0 10e1 efbe f4d7 82bf 3f7c 893f
000000e0: 4e0b 32c0 34bf ecbf 7ff1 96bf 57a4 57bf
000000f0: 0171 abbf 17fb 5abe 09ed 873e 0d83 25c0
-2.0639987 -1.5550323 1.0978352 -3.3751104 -3.6209018 2.056454 -4.155483 -3.4902
0.7804214 0.86742955 -3.0482213 -1.4839412 1.3936472 -1.4126546 -1.304353 -0.1217474
-4.2985334 -0.78328025 -3.2883563 -2.3355458 -2.3348837 -4.784386 -2.1945255 -2.1686785
1.1982931 -2.7251296 -3.5054998 -1.8763578 -0.507801 0.37573245 1.8928852 0.70415574
1.2883828 -0.17241633 -2.3815994 -0.11076111 -2.2425232 0.12759744 3.2804935 -0.18360272
-0.81354547 -3.7845106 -3.579953 -5.184157 2.725155 -0.076323524 -1.8174781 -2.2320848
0.8159921 1.1157932 1.45018 -1.8773154 -2.8861427 -0.46851397 -1.0222154 1.0741042
-2.78194 -1.849585 -1.1792449 -0.8423514 -1.3393861 -0.21384846 0.2654803 -2.5861237

pose_encoder.net.2.1.running_var f4 [64]
00000000: 1f36 b640 2606 2342 871b 9a40 2e18 a741
00000010: f154 8841 212c b040 bfaf 2541 ba75 bc40
00000020: 5b1e 6e40 e94b 0041 43d3 c240 7608 5241
00000030: 2cc5 c140 0ab4 1941 f6bd af41 066e 7440
00000040: 8ed4 0041 6c8e a241 b95f 6141 ddbf b441
00000050: 2e64 1541 5cae 7f40 ead4 d440 be66 6741
00000060: f674 8e41 e745 a241 dd7c 2a42 8d23 1342
00000070: 1f7c 1a42 a034 c840 3b2b b840 4c2e 2441
00000080: a709 2441 90e3 8641 81dd 8c41 bd71 7d40
00000090: fd38 a240 8219 a840 a79f c341 8876 ae41
000000a0: d34d 7240 1978 4841 c87d 0b41 495a 9841
000000b0: 46c0 7c41 e4f2 8440 46a7 b440 2ee4 8f41
000000c0: c6cc 4341 3568 9140 7075 a840 5a8e 8f41
000000d0: 3a39 6241 24d0 f440 491e 7e41 1443 b940
000000e0: 43dc a841 e13b df3f ba3c 4241 c5f8 d840
000000f0: 5894 c140 b7b9 1642 c812 5541 74d3 5b41
5.6941066 40.756004 4.8158603 20.886806 17.041475 5.505387 10.355407 5.889371
3.7206028 8.018533 6.088289 13.127066 6.055319 9.606455 21.967754 3.8192153
8.051893 20.319542 14.08587 22.593683 9.336958 3.995017 6.6509905 14.462584
17.80711 20.284132 42.621937 36.784718 38.621212 6.256424 5.755277 10.261303
10.252357 16.861115 17.608156 3.960067 5.0694566 5.2531137 24.452955 21.807877
3.786 12.529321 8.718208 19.044085 15.796942 4.1546497 5.645419 17.986416
12.2374935 4.5439706 5.2643356 17.944508 14.138971 7.650408 15.882394 5.7894382
21.10755 1.7440149 12.139826 6.7803674 6.0493584 37.681362 13.317085 13.739124

pose_encoder.net.3.weight f4 [32, 64, 3]
00000000: 8047 32be 814a 67bd 6fe1 80bd 472f d3be
00000010: fc7e d1bc 4e9c 2d3e cc13 41be 35bc 32be
00000020: ed11 65be f61a c13d a1b9 0fbe 2aba a4bd
00000030: b600 313e 5a9d d8bd 07ef f1bc 690d d23d
00000040: b197 50be 5349 a6be 5b23 4c3f 69f5 18be
00000050: e9de 1ebe 1ff8 1bbf 5d74 a23d 9459 163e
00000060: 20e7 3a3e e8c9 633e 54da 763e 147a 853d
00000070: 535b 8a3e 11b8 363e 3b48 79bd 8e0e 3e3e
00000080: 9319 653d ede8 9fbe 3d8b 73bc e278 333e
00000090: 87fe d9bd ae06 1dbe a861 8abe a28e 34be
000000a0: ee93 19be d7ba fabd d598 173e 11f8 f63d
000000b0: f363 7e3e ef1d 793e c40d 763d ad06 0a3e
000000c0: 97b1 723e 9f5f 91be f5c9 39be 7396 403e
000000d0: 08e9 a73c 4ed1 6c3d df53 2f3f 8280 66be
000000e0: 2bfe fbbe 27dc 8fbe ad01 a23e 112b 283f
000000f0: dc83 40be 7158 2f3e ec69 84bd 91ed f0bd
00000100: 71f8 99bd 1f3b 6fbe ea92 20be e17a 28be
00000110: 9ead 093d 379f e6be 1dee e0bc b939 363e
00000120: e3c9 d13e ea6e 95bc ac47 89be e4e1 9bbd
00000130: 330e 143e 42d7 cf3a ac85 d9bd a37b a43d
00000140: 7f77 87be 2323 00be 71e0 9dbd d200 06be
00000150: e2e2 60bf 3a35 e23d 7a96 073f 022c 663e
00000160: 6a0c e03d 31c5 a23d 7f5c 723d b19d 373e
00000170: 6ef3 d7bc 7c29 083f f17f b8bc 346d 11be
00000180: 7d67 29bf bf35 c53d 6b70 113f 59e1 80be
00000190: 93ac c7bd 7e98 c73d 1840 f63c b099 823d
000001a0: d7bd a3be 93e9 3f3e f2a7 4e3d 56d7 a43d
000001b0: d741 6f3d 8db7 c6bc 29a0 0b3e 719e 5b3e
000001c0: d86e 02bd b74d 79be 548d 083f 3b23 48bd
000001d0: 131d dcbd 8b87 3c3d dafa f7bd c4cb 8fbe
000001e0: 5ce4 5a3d 18d3 d8bb 02a2 e0bd b4e1 69bd
000001f0: f0ce d3bc 1672 0a3d 8196 97be 0beb cb3d
00000200: 2def bc3d ccd0 4e3f 7494 dd3d 81f7 71be
00000210: fff3 1f3d 0df4 edbd 1945 92be 3640 92bd
00000220: e355 4f3d 8750 8cbc 5854 1e3e 9db7 d53c
00000230: e4d8 98be 7ba1 873c f1bc 02be 1773 04bd
00000240: 346a 8f3e 6f05 0d38 5e6f 35bd 86a5 d93d
00000250: 1151 37be 1b0f a3be 8932 b1bd 38e4 203e
00000260: f14c 863e de54 6fbf f900 3fbd 2776 0f3f
00000270: 7a21 bebe 4f31 0f3e d072 b03e 00db cd3e
00000280: 514e cf3e 8049 903e 34f0 61be f2be 9dbe
00000290: 8652 4bbe 1d8d ff3d 43a9 60be b7d8 2ebe
000002a0: b126 11bf 0617 023e a26c f63e 7f01 bbbd
000002b0: e7ae 0dbe 49e5 8fbd 11a6 31be ded7 58be
000002c0: a3c9 1fbe ed3c 32be 7798 63bd 9d92 453d
000002d0: 347c 1cbd 6d2c 5abd d887 14be f59b 0a3f
000002e0: d4a9 833d 6333 bebe e79e 88be e1ae b23d
000002f0: 122b 8e3e 121b 7cbd 9a02 97bc 9ded cebc
00000300: 8c6c bcbd aca7 873d 24fb 4fbd 429d f0bd
00000310: 36d4 a6bd 42d6 5dbe cb84 23bd c99c 7f3c
00000320: 0e23 9dbd f151 25be 66a0 a0bd c57b 13be
00000330: 5208 de3d 9d44 953d 42e0 dabc 16ed 363e
00000340: b83a 20bc 8891 53bc 2eb7 3f3e 1966 6e3d
00000350: 8050 58be 542b 1b3d c17c 50bd 0aa1 003e
00000360: b27f 89be 4de2 aabd 2213 9abe d6f3 c43d
00000370: 26fd b23c e147 e3bb 8920 2b3e bb71 203e
00000380: bea4 433e 1aa9 07be 72dd 09be c99c 16be
00000390: e946 673d d7d5 6cbd 07bd e63d 8c94 903e
000003a0: 38f0 7d3d 5cb4 0d3e a655 183e a58b 6c3d
000003b0: db91 d2bb da28 04bd 0deb 27bd ee22 18be
000003c0: 1fff 873e 9ecc 093e 22de 043e bcc5 c5be
000003d0: 3ec7 9fbd 3eda d9be 2827 acbe ce47 02be
000003e0: 6b25 24be 485e d13e 80cb 993d 1d11 233e
000003f0: c27e 93bd 69e5 d73d db77 1a3c 510b e8bd
-0.17410088 -0.056467537 -0.06292998 -0.41247007 -0.025573246 0.16954157 -0.18855208 -0.17454608
-0.2237012 0.094289705 -0.14035656 -0.080433205 0.17285427 -0.105768874 -0.029532922 0.10256464
-0.20370366 -0.32477817 0.7974145 -0.14937367 -0.15514721 -0.6092548 0.07932351 0.14682609
0.1825223 0.2224499 0.24106723 0.06517425 0.270228 0.17843653 -0.0608599 0.1856024
0.055932593 -0.31232396 -0.01486474 0.17526582 -0.1064425 -0.1533458 -0.2702763 -0.17632535
-0.14997837 -0.12242668 0.14804395 0.12059034 0.24842815 0.24327825 0.06007172 0.13479109
0.23700558 -0.28393266 -0.18143447 0.18807392 0.02049686 0.057816796 0.6848735 -0.2250996
-0.49217352 -0.2809765 0.31641904 0.65690714 -0.188003 0.17123581 -0.064655155 -0.11764062
-0.075180896 -0.23362397 -0.15681043 -0.16453125 0.03361284 -0.45043346 -0.027457291 0.17795457
0.4097434 -0.018241365 -0.26812494 -0.076114446 0.14458542 0.0015856999 -0.10621199 0.08031394
-0.26458356 -0.12513404 -0.077088244 -0.1308625 -0.87846196 0.110453084 0.52963984 0.22477725
0.10939868 0.079477675 0.059170242 0.17931248 -0.026361194 0.531883 -0.022521945 -0.14201814
-0.66173536 0.09629392 0.5681216 -0.25171927 -0.09749713 0.097458825 0.03005986 0.0637697
-0.31980774 0.18741445 0.050453134 0.080488846 0.0584124 -0.024257446 0.13635315 0.2144716
-0.03184399 -0.24346052 0.5334065 -0.048861723 -0.10747733 0.0460277 -0.12108393 -0.28085148
0.053440437 -0.006616961 -0.109684005 -0.057100013 -0.025855511 0.033800207 -0.29607013 0.0995694
0.09225307 0.8078735 0.10819331 -0.23629571 0.039051052 -0.116188146 -0.28568342 -0.071411535
0.050619017 -0.017128242 0.15461862 0.02608853 -0.29852974 0.016556492 -0.12767388 -0.03233632
0.28010714 3.362208e-05 -0.04429566 0.10627274 -0.17902018 -0.31847462 -0.08652217 0.15712059
0.26230577 -0.9348887 -0.046631787 0.5603966 -0.37134916 0.13983653 0.34462595 0.40206146
0.40489438 0.28181076 -0.22064286 -0.30809742 -0.19855699 0.12478087 -0.21939568 -0.17074858
-0.56699663 0.12704095 0.48129755 -0.09131145 -0.13836251 -0.070261545 -0.17348506 -0.21176097
-0.15604262 -0.17406054 -0.055565324 0.048235524 -0.038204387 -0.053265024 -0.14504945 0.5414422
0.064288765 -0.3714858 -0.26683733 0.08724762 0.27767235 -0.061549254 -0.018433858 -0.025259787
-0.09200391 0.06623778 -0.050776616 -0.117487445 -0.08145945 -0.21663764 -0.039921563 0.015601345
-0.07672702 -0.1614454 -0.078430936 -0.14402683 0.10841431 0.072884776 -0.026718263 0.17863879
-0.009779625 -0.012913115 0.18722221 0.058202837 -0.21124458 0.037883118 -0.050900225 0.12561432
-0.26855236 -0.08343945 -0.30092722 0.096168205 0.021849226 -0.006936059 0.1671163 0.15668385
0.19105813 -0.13248101 -0.13463381 -0.14708246 0.05646411 -0.05782112 0.11266523 0.28238332
0.06199667 0.13838333 0.14876422 0.057750363 -0.0064260787 -0.03226552 -0.040995646 -0.14857075
0.2656183 0.13456962 0.12975362 -0.38627422 -0.07801674 -0.42549318 -0.33623624 -0.12722704
-0.16029899 0.40892243 0.07509518 0.15924497 -0.072019115 0.105418034 0.00942799 -0.113302834

pose_encoder.net.3.bias f4 [32]
00000000: 541b ba3c 857f 4b3d 26e7 e4bd 0c3d 2bbd
00000010: 1381 94bb da3d 303e fcf3 183d a900 5b38
00000020: 27a2 9cbd b1e8 c13c 5ec8 98bd 22f0 f03c
00000030: af64 cb3c 7179 b6bd 8493 7d3d 6b7f 043d
00000040: 7d30 f1bd 6ebf e7bc bbf0 a8bd fc83 393d
00000050: 591f c1bd ce28 fc3b 832d 8abc 549a 1d3e
00000060: 86b2 1b3d da2c 8b3d 9bea 17be d9b1 a1bd
00000070: 0e52 e4bc 9b95 0b3d 0bf8 273b c756 eb3b
0.02271811 0.04968216 -0.111769006 -0.041806266 -0.0045319884 0.17211094 0.037342057 5.2214284e-05
-0.076481156 0.023670526 -0.07460092 0.02941138 0.024828283 -0.08909882 0.06190826 0.032348078
-0.117768265 -0.028289523 -0.08249041 0.045291886 -0.09429807 0.007695294 -0.016867405 0.15390903
0.03801205 0.06795664 -0.14835589 -0.0789525 -0.027871158 0.03407822 0.0025630023 0.0071819755
